UAV-Code/mypython/FlightControll/Vision/models/FastestDet.onnx (onnx, 999458 bytes, 140 tensors)

onnx::Conv_736 f4 [24, 3, 3, 3]
000000 b4 39 66 bd a4 67 18 bd 5b ea 64 bd b5 6f 30 bd
       -0.056207374 -0.037208214 -0.05588756 -0.043075282
000010 3c 26 ce bc ef b0 04 bd 09 c6 85 bd e4 f1 67 bd
       -0.025164716 -0.0323953 -0.06531913 -0.05662717
000020 e5 c2 3e bd 3e e3 8b bd a5 68 4a bd 7e e5 9b bd
       -0.046572585 -0.068304524 -0.049416203 -0.076121315
000030 fa 86 d1 bd 60 d3 a3 bd 6d 13 99 bd c7 5a 00 be
       -0.10230823 -0.07999301 -0.07474408 -0.12534629
000040 8a f1 b8 bd a5 14 96 bd a8 21 09 3e 3d b7 d1 3d
       -0.09030445 -0.073281564 0.13391745 0.10240028
000050 4f 9b cb 3d 69 f0 f0 3d 64 85 c0 3d d4 db 96 3d
       0.09941732 0.117646046 0.09400442 0.07366148
000060 51 d6 15 3e 94 74 09 3e f9 6f da 3d 1d 66 8b 3e
       0.14632536 0.13423377 0.10665888 0.27226344
000070 65 38 87 be 13 08 8b be b6 0a 9f be 90 75 12 bf
       -0.26410213 -0.27154598 -0.3106286 -0.57210636
000080 6b 01 a0 3d f1 b6 8d bd 5b 74 62 3d b3 fc ce 3e
       0.078127705 -0.06919659 0.055286746 0.4042717
000090 a7 4f 28 3f 9f 97 21 be ec dd 9d be 5e 2e 99 be
       0.6574654 -0.15780495 -0.30833375 -0.29918188
0000a0 50 db 64 bf ed f1 13 be e5 82 85 be 0a 99 a9 3c
       -0.89397144 -0.14447756 -0.26076427 0.020702858
0000b0 0a 2e 45 3f fa 15 2a 3f 2e 4a 17 3e 4d cf b1 bd
       0.77023375 0.66439784 0.14774391 -0.086821176
0000c0 88 96 2c bd 68 c9 2d bf 26 31 a0 be f3 86 80 be
       -0.042135745 -0.67885447 -0.31287497 -0.25102958
0000d0 6f 65 15 be 8d c7 ca 3e 08 b2 b3 3d 62 be 90 3d
       -0.14589475 0.3960537 0.08774191 0.07067563
0000e0 1b ca 95 3d e1 00 4d 3d 92 54 8c 3b 53 5f ea 3c
       0.07313939 0.050049666 0.0042825425 0.028609907
0000f0 04 64 a7 3d e0 71 4c 3d cc 19 4a 3d 46 06 28 be
       0.08173373 0.049913287 0.049341008 -0.16408643
000100 a5 a3 39 be 62 21 09 be 42 9f 3f be 1c 3c 5c be
       -0.18128832 -0.13391641 -0.18713096 -0.21507305
000110 5a 65 13 be d7 d6 0d be 9e 87 1d be 0b 0e c5 bd
       -0.14394131 -0.13851486 -0.15383765 -0.09621819
000120 03 5f 8b 3c 6a 25 83 3d 62 01 6d bc e3 64 c7 3d
       0.017013079 0.064036205 -0.014465662 0.097360395
000130 6c e1 1b 3e a8 5a 1e 3d a5 eb 10 3c 09 e1 21 3d
       0.1522271 0.038660675 0.0088452445 0.03952125
000140 91 aa c2 bc d5 9f 04 be 0a 1a 46 be d3 dc 88 bd
       -0.023762973 -0.12951596 -0.1934587 -0.06682744
000150 5a b8 29 be b4 53 71 be 7e 81 e4 bd e7 b5 28 bd
       -0.16574231 -0.23567086 -0.11157511 -0.0411891
000160 61 e8 cb bd d2 8f 43 3c fa df 8f 3e 9b 49 85 3e
       -0.09956432 0.011936145 0.28100568 0.2603272
000170 17 06 40 3e bb 53 85 3e 33 c7 7c 3e e4 37 34 3e
       0.18752323 0.26040444 0.24685363 0.17599446
000180 a3 db 5d 3e af 2f 34 3e aa 20 14 3e d9 79 01 bd
       0.21665816 0.17596315 0.14465585 -0.031610344
000190 01 0d 30 bb 97 92 43 bd 42 e3 29 3b de fe 6e 3d
       -0.002686322 -0.04774722 0.002592281 0.05834853
0001a0 6c f2 d1 ba 33 1b 95 bd 04 32 0a bd b8 7d 88 bd
       -0.0016017682 -0.072805785 -0.033739105 -0.06664604
0001b0 5e b2 e1 3e ec 80 38 be af 2d 62 be 5d 66 b1 3e
       0.44081396 -0.1801793 -0.2208774 0.3464841
0001c0 37 55 e2 3c 67 6e 68 be 11 9a b9 3e 7d 23 de bb
       0.027628524 -0.22698365 0.36250356 -0.006779133
0001d0 15 40 8f be dd e4 57 3f 3e 95 a6 be 4c 47 09 bf
       -0.27978578 0.8433359 -0.32535738 -0.53624415
0001e0 4b 76 3b 3f dd e3 0f bd e9 06 04 bf 1a 5f 2d 3f
       0.73227376 -0.035129417 -0.51573044 0.6772324
0001f0 e7 f4 72 bc 17 73 00 bf 29 2f 3a 3f 6d 87 ad be
       -0.014828897 -0.50175613 0.7272821 -0.33892384
000200 cf 77 e8 be 29 88 15 3f 57 35 c6 bd 62 b7 e2 be
       -0.45403907 0.5841089 -0.096781425 -0.44280535
000210 87 a5 30 3f 45 d6 48 bc f7 69 03 bf a7 29 25 3c
       0.69002575 -0.012258117 -0.51333565 0.0100807315
000220 64 d7 85 3d b3 ac 8c 3b c1 05 5a 3d 03 44 95 3d
       0.06535223 0.0042930483 0.053228144 0.07288363
000230 2e a5 22 3d 99 36 1e 3d 28 13 a1 3d 76 2c 34 3d
       0.03970831 0.038626287 0.07864982 0.043987714
000240 64 b8 ad 3c fe 43 82 3d 7d 08 94 3c 4f 4f 3b 3d
       0.021206088 0.06360625 0.018070454 0.04572993
000250 1a 50 46 3d ad 07 c1 3c 11 e1 c8 3b e6 95 0d 3d
       0.048416235 0.02356323 0.0061303456 0.034566782
000260 03 98 f0 3b f2 ad 80 3c 3c 91 86 3d 48 98 2b 3d
       0.00734234 0.015707944 0.0657067 0.041893274
000270 d7 cb c1 3c f5 ac 21 3d 2c b6 0a 3d 92 6c f6 bc
       0.023656769 0.039471585 0.03386514 -0.030081067
000280 62 fb ff 3c d2 73 a8 3c 4a 3e ef be 97 c7 18 3d
       0.031247798 0.02056304 -0.4672721 0.03729972
000290 33 c3 21 3f fa 44 17 bf 0b 2a 1a bd 97 df 22 3f
       0.63188475 -0.59089625 -0.03763775 0.6362242
0002a0 99 96 32 bf 47 84 c1 be ab 4a 37 3f 88 1b 39 bf
       -0.69761044 -0.37796232 0.7159831 -0.72307634
0002b0 6e ff a7 bc 51 a9 82 3f 4e 70 48 bf 48 36 28 be
       -0.02050754 1.0207921 -0.78296363 -0.16426957
0002c0 2d dc 7d 3f e4 25 42 bf 93 d2 0f bf 1c 7b 7c 3f
       0.99164087 -0.75839067 -0.56180686 0.9862535
0002d0 e9 44 a1 be cb 7d 4c bc 9f de 3e 3f ea d5 86 be
       -0.31497887 -0.012481163 0.7455844 -0.26335078
0002e0 9f 5b 26 be 29 db 21 3f c4 99 a7 be 1f 31 f5 be
       -0.16245888 0.63225037 -0.327345 -0.4788904
0002f0 16 af 3e 3f 43 2d 6d 3e 1a 88 00 3f b0 f5 c0 3e
       0.7448591 0.23161797 0.50207675 0.37687445
000300 4d 73 c4 be ae dd 97 3e 7b 4c c4 3e eb ea 91 be
       -0.38369218 0.29661316 0.383396 -0.2849954
000310 35 e1 7c 3e 98 99 38 3f ef 72 4e bd 71 fa e8 bd
       0.24695285 0.72109365 -0.050402578 -0.11375893
000320 90 aa db be 4a 8f e3 3d 9b a4 97 bc 65 bb 17 be
       -0.42903566 0.111113146 -0.018511107 -0.14817579
000330 de f1 e7 3e 9c fb 59 bd 2a e9 df 3d ae 99 b6 3e
       0.45301718 -0.05321847 0.109331444 0.35664123
000340 ec c2 6a 3e d6 8f 1e bf 59 d4 2d 3e b1 95 dc 3d
       0.2292592 -0.61938226 0.16975535 0.10770739
000350 25 ac 35 be 6f 1f 10 3f 9b aa 1f 3e 78 d4 b2 3e
       -0.17741449 0.56297964 0.15592425 0.34927726
000360 f5 a7 24 3d d3 1c 25 be e6 34 e2 ba 1a 35 89 3e
       0.04019924 -0.16124277 -0.0017258197 0.26798326
000370 29 55 d8 3d 48 ad 52 be 81 02 7d 3e b3 67 14 3f
       0.10563118 -0.20573914 0.24707986 0.5797073
000380 48 74 b9 3e e7 e1 55 be 46 eb 24 bf 11 fc ec be
       0.36221528 -0.20886956 -0.644215 -0.4628606
000390 b2 a2 c9 3e 20 24 fb 3c 94 b9 d0 be fb 0e 06 3f
       0.3938194 0.030656874 -0.40766585 0.5236661
0003a0 26 3d 5d 3f 15 c6 0e 3f 62 cf f3 be c8 10 74 bf
       0.8642143 0.55771 -0.47619158 -0.95338106
0003b0 9f 11 6e bf 5f a3 cd 3e 96 60 c0 bd e9 96 29 bf
       -0.9299564 0.40163705 -0.09393422 -0.66245896
0003c0 4c e2 6c 3f 1d 58 8c 3f 41 bd 3f 3f 94 b8 32 bf
       0.925328 1.096439 0.74898154 -0.69812894
0003d0 6a 69 0d 3d c6 3b 2f 3e 64 2f d7 3c 43 45 21 3f
       0.03452436 0.17112646 0.026267715 0.6299631
0003e0 92 46 c2 3d e5 0c 03 3e 4c 84 24 3e 8f 3a 0a bf
       0.094861165 0.12797888 0.16066092 -0.53995603
0003f0 0e 59 5b bf 81 83 33 3e 1a 59 11 3e 77 c7 da 3d
       -0.8568276 0.17530634 0.14194146 0.10682576

onnx::Conv_737 f4 [24]
000000 13 c2 2d 3f b2 3c b0 3f a6 72 70 3f 8c 32 95 3d
       0.6787426 1.3768523 0.9392494 0.07285032
000010 b6 49 aa be 36 87 96 3e 6a 54 2a be 86 db 18 c0
       -0.33259362 0.29400033 -0.16633764 -2.3883986
000020 df 4b 57 bf e2 ae ba 3e 28 f9 66 bc cf 85 91 ba
       -0.84100145 0.3646155 -0.014097489 -0.00111025
000030 e4 17 47 3f 18 44 1e 3d 7a 2c 93 bf 63 62 1d bb
       0.7777083 0.038639158 -1.1497948 -0.0024014942
000040 ce 31 45 3f 92 d6 76 3f e0 6c e7 3e f9 8e 6d bf
       0.7702912 0.9642116 0.45200253 -0.92796284
000050 50 60 4a 3f 29 34 44 40 36 bd 10 bf 3d ac 07 3f
       0.7905321 3.0656836 -0.5653871 0.5299719

onnx::Conv_739 f4 [24, 1, 3, 3]
000000 f8 e0 d7 bd dd 32 9a 3c a8 8d f7 bd 2c 82 a7 bf
       -0.10540956 0.018823082 -0.12087566 -1.30866
000010 88 a0 0a bf 8f cd 8d 3f 85 e9 b1 bf 19 b7 1e bf
       -0.541512 1.1078357 -1.389939 -0.61998135
000020 77 e4 8b 3f 9e d2 05 3e 16 ae 86 bd f2 b7 a0 bd
       1.0929097 0.13068625 -0.06576173 -0.07847585
000030 dd 2f 21 3e de 81 95 3d 64 eb 55 bd a3 2b 57 3e
       0.15740915 0.07300161 -0.05222644 0.2101274
000040 ce bd 23 3e 61 54 00 be ba 10 44 3d b9 99 37 3d
       0.15990373 -0.12532188 0.047867514 0.044824336
000050 68 51 c1 be bf 45 2c bd 32 f9 a2 bd 33 8d bc 3e
       -0.3775742 -0.042058703 -0.079576865 0.36826476
000060 7b fa 2f bf 2b 4c a5 3d e8 6e 08 40 15 5a 62 3d
       -0.6874158 0.080711685 2.1317692 0.05526169
000070 39 46 79 3d 92 41 2f 3d 57 c8 92 3e 0c 16 c8 3d
       0.060857985 0.042787142 0.28668472 0.0976983
000080 4e db a9 bd f7 9c 1e 3f ee 6a 79 3e 48 00 3a be
       -0.08293782 0.6195826 0.24357197 -0.1816417
000090 0d 13 98 bc c8 0c c9 3c 18 0d 1d 3b 66 79 19 3d
       -0.018563772 0.024542227 0.0023964103 0.03746929
0000a0 ee d7 b3 3c e3 98 3f bd 00 3f 13 3c 67 80 78 bd
       0.02195355 -0.046776664 0.008987188 -0.06066933
0000b0 2f 0a 6b be 43 d1 d5 3d 3b 85 54 3d 70 a7 8f 3d
       -0.22953103 0.10440304 0.05188487 0.07014358
0000c0 48 ed 8f bf c3 61 bc 3d 63 79 67 3f 12 48 96 bf
       -1.1244287 0.09198334 0.90419596 -1.1740744
0000d0 ef b0 d5 bd bc 34 94 3f a1 8c 8e bc b9 77 da 3c
       -0.10434138 1.1578593 -0.017401041 0.026668416
0000e0 d9 16 d8 bb a8 5b 03 3d 38 e6 e9 bb 32 70 37 bd
       -0.0065945205 0.032069832 -0.00713804 -0.044784732
0000f0 32 ff 1e bc 95 da 30 bd 36 b1 13 be 9a 6d 9f bd
       -0.009704398 -0.043177206 -0.1442307 -0.07784577
000100 a8 e0 08 3e 2c 52 33 3e ea 58 28 be 7a f1 97 3e
       0.1336695 0.17511815 -0.16440168 0.2967642
000110 92 a1 10 3f ed cb a3 be 02 cc f4 3e 6a b8 78 3f
       0.56496537 -0.3199152 0.47811896 0.97156394
000120 22 a4 0d 3c a1 d6 32 bd 90 cd 68 3d 50 8d 3c bd
       0.008645089 -0.043661717 0.056836665 -0.046033204
000130 41 6a 0d bd 43 c1 f4 3d 76 e8 58 bd bd 4c 69 3c
       -0.03452516 0.11950924 -0.052956067 0.014239487
000140 dc 03 a0 3e 49 bf da bd 33 5b 6e be f5 02 a7 bd
       0.31252944 -0.10681016 -0.23276977 -0.08154861
000150 01 4e dd bc 98 2c 3c be f1 cf 1a bd 13 98 76 bd
       -0.027014734 -0.18376386 -0.037795965 -0.060203623
000160 12 62 e0 bc 7c 40 62 be b8 f2 bc 3e 9b 74 76 3e
       -0.027390514 -0.22094911 0.3690393 0.24067919
000170 a7 63 84 3e 83 2d 8f 3e 76 52 97 be f7 fa 16 bf
       0.2585728 0.2796441 -0.295551 -0.5897669
000180 60 59 5d 3f ea f8 ac bf 1f ad 50 c0 57 ae a7 aa
       0.864645 -1.3513463 -3.2605665 -2.9786132e-13
000190 8b 3d de aa 48 d0 fe aa d2 9a 72 aa 1a 03 46 aa
       -3.9477826e-13 -4.5263988e-13 -2.1547632e-13 -1.7587009e-13
0001a0 ba 88 a5 2a 2e 05 ab aa 5b db d3 2a 53 dd ec 2a
       2.940476e-13 -3.0379296e-13 3.7633338e-13 4.2075596e-13
0001b0 42 b5 91 3c e1 e7 9f bd dd 30 83 3d 44 32 6a bd
       0.017786626 -0.07807899 0.06405804 -0.057176843
0001c0 96 88 7a be a7 44 72 be 73 97 c0 bd 80 9b 0f be
       -0.24466166 -0.23659001 -0.09403887 -0.14024162
0001d0 87 94 6c be 6a 3c a5 bc e1 00 83 bd 91 4b 7a bd
       -0.23103534 -0.02017041 -0.06396652 -0.061107222
0001e0 8b 71 ca 3b 92 8a 14 be bc 89 f6 be c1 34 3b bc
       0.006178086 -0.14505985 -0.48151958 -0.011426152
0001f0 7b 75 2b be c3 1e d8 be 03 67 e2 bc 25 1d 91 3d
       -0.16744034 -0.4221097 -0.02763701 0.07085637
000200 62 bf dd bb 67 b3 df 3c f8 8a 4f 3d 2f d2 16 be
       -0.0067671994 0.027307225 0.05066964 -0.14728616
000210 39 50 26 bd 6d 7b 26 bd 83 0a 98 be f0 1a 0e 2b
       -0.04060385 -0.04064505 -0.2969552 5.048592e-13
000220 7c b7 e5 28 d4 2d b3 aa a2 30 65 aa c5 3e 00 ab
       2.5503681e-14 -3.1828587e-13 -2.0356159e-13 -4.5561845e-13
000230 5b 27 99 28 7f 50 27 ab f3 2d d6 2a 75 40 d2 a9
       1.700348e-14 -5.944203e-13 3.804592e-13 -9.337055e-14
000240 e9 1f d9 3d fd b0 9b 3d e4 1e 05 3e 99 11 d5 3e
       0.106017895 0.07602117 0.13000065 0.41614988
000250 c4 a1 4c 3d de c0 d6 be 93 73 18 3f dc 56 87 bd
       0.04995896 -0.4194402 0.5955135 -0.06608364
000260 2c 5c 54 bf fb d6 82 bd ba 4d 7c 3d 2e 97 84 3d
       -0.82953143 -0.063886605 0.061597563 0.06474148
000270 8e 48 60 be 06 c2 4e 3d 5a 25 b6 3e f7 33 d3 bd
       -0.21902677 0.050478004 0.35575372 -0.10312646
000280 6e 7f c8 3c a0 b1 93 3e b5 b5 0c be 15 aa ec bd
       0.024474826 0.28846455 -0.1374119 -0.11555878
000290 94 72 af be 64 eb 1e be 28 94 f4 be c6 be 58 bf
       -0.34267104 -0.15519482 -0.47769284 -0.846661
0002a0 23 f9 b3 bd 80 f7 9f be 5b 82 f6 be 21 3e 68 3b
       -0.087877534 -0.31243515 -0.48146328 0.0035437422
0002b0 1a d9 84 3d 0a 40 38 bb 7d ed 8c 3d 24 13 c0 3d
       0.06486721 -0.0028114342 0.06881235 0.09378651
0002c0 5d 5a c6 bd 44 0f a4 3d 44 e8 5f bd 75 9f b1 be
       -0.09685204 0.08010724 -0.054664865 -0.3469197
0002d0 7e dc 69 3d c1 6b 56 bc 10 f9 a8 3c f7 f9 40 3e
       0.057095043 -0.013087214 0.020626575 0.18845354
0002e0 fe a4 2f 3d 6b ff 66 bd 19 2b 0a 3e 4d 56 5e 38
       0.04288196 -0.05639593 0.13493003 5.30093e-05
0002f0 87 6c ba bc e5 41 f6 39 12 fc 85 bd bb b5 13 bd
       -0.022756828 0.00046969872 -0.06542219 -0.036061984
000300 eb 7d df 3e f1 67 b3 bd 06 7f f7 be ce e8 ca 3e
       0.43650755 -0.087600596 -0.483391 0.3963074
000310 5c d0 a8 bc 39 3a f2 be a3 e5 de bc cb 55 3f 3d
       -0.020607166 -0.47310045 -0.027209109 0.046712678
000320 23 bd ae 3d f0 70 b1 3d b7 e6 eb bb 8f 48 bb bd
       0.08532169 0.08664119 -0.007199134 -0.09144699
000330 38 03 4c 3b 46 ea 93 bd b3 b7 b5 be 86 34 2d 3d
       0.0031129848 -0.072224185 -0.35491714 0.04228642
000340 24 50 a5 3d 9b 6a c5 3c d0 6c 2e 3c 09 f5 1a 3e
       0.08071926 0.024098685 0.01064606 0.15132536
000350 06 c8 d9 3d 3d 93 d8 3c c2 6f 1b 3e 8c 2a 02 3e
       0.106338546 0.026437396 0.15179351 0.12711543

onnx::Conv_740 f4 [24]
000000 e0 b9 86 3f 6f a5 8a be 9b 1d 6c bf 0e 3a 16 bf
       1.0525475 -0.2707934 -0.92232674 -0.58682334
000010 e3 77 a7 3d 51 27 99 3c 51 3f a2 3d 25 56 2f bd
       0.081771635 0.018695505 0.07922233 -0.042806763
000020 a9 c5 28 be 82 67 01 3f 54 d5 fd 3e 24 4c dd 33
       -0.16481651 0.50548565 0.4957682 1.0304964e-07
000030 ef 1a e0 3d 41 23 47 3f 58 1d 0d 3e c9 c2 d9 33
       0.10942637 0.7778817 0.13780725 1.0140281e-07
000040 e0 62 65 bd f1 12 17 bd 23 45 07 3f 0b 6f e2 3d
       -0.056002498 -0.0368833 0.5283987 0.11056336
000050 d2 e6 ff bd af 2d bf 3e 89 1e 1c 3e 3a 34 7d be
       -0.12495197 0.3733954 0.15246023 -0.24726954

onnx::Conv_742 f4 [24, 24, 1, 1]
000000 c4 3b e3 bc 7e b4 9c 3d 22 e5 00 3d 68 a5 8a 3c
       -0.02773846 0.07651614 0.031468518 0.016924575
000010 35 83 a6 bc 49 e3 cf 3c 41 3c 0c 3c 6d 1c bf bc
       -0.020326236 0.025376933 0.0085592875 -0.023328984
000020 f9 c0 c9 bb 75 d5 72 3d b3 0f db 3c 3b 09 aa aa
       -0.0061570373 0.0592856 0.026740884 -3.020447e-13
000030 d3 8c 88 be 3b 76 e7 bd 48 c1 25 3c 32 40 79 aa
       -0.2666994 -0.113018475 0.010116883 -2.2137915e-13
000040 d8 f3 52 39 51 de 3d 3e 7a b3 0a bd b7 11 50 3a
       0.00020118 0.18541838 -0.03386257 0.000793721
000050 6a 72 13 3d 8b b8 9a bd 68 b4 fb bc bb 51 b7 3b
       0.035997786 -0.0755473 -0.030725673 0.00559446
000060 64 8a 45 bd 36 72 50 3e e0 7b 43 3d 53 46 08 bd
       -0.048227683 0.20356068 0.04772556 -0.03327019
000070 d7 ec 58 bc 61 29 a3 3d 54 d2 2d bd 14 ed d5 3c
       -0.013240061 0.07966877 -0.042436913 0.026114024
000080 eb 9a 47 bd a2 1b 64 ba b5 bb a3 3f c5 21 74 2d
       -0.048731726 -0.00087016274 1.2791659 1.38772925e-11
000090 43 dd 40 be fc 2a 52 be ed 98 3e bc 70 41 49 2d
       -0.18834405 -0.2052421 -0.01163314 1.1440057e-11
0000a0 9e 8c 79 be a4 9b 8b 3d 74 5b c2 3c 2d ab 26 bd
       -0.24370047 0.068167955 0.023725249 -0.04069059
0000b0 1e da 50 3c 29 31 b8 bd 73 e5 1a 3c 7b 63 2a 3d
       0.012747316 -0.089937516 0.009454119 0.04159878
0000c0 6f df a1 3d 05 35 65 3c 5f 4e 9c 3e f3 de 84 3d
       0.07903945 0.013989692 0.30528542 0.06487837
0000d0 46 bd e4 3b 17 7d 29 bc c1 f3 f5 bc 65 b1 05 bd
       0.006980571 -0.010344765 -0.030023457 -0.03263988
0000e0 30 1e c3 ba 53 5f c0 3c d9 04 96 be 39 bc 6c 2b
       -0.0014886316 0.023482954 -0.29300573 8.4105254e-13
0000f0 b4 22 c9 3c 17 38 b0 bb a7 8e c4 3c 5b 63 b2 2b
       0.02455268 -0.00537778 0.023993803 1.2675237e-12
000100 b8 dd a6 be 33 8b 22 bc 20 40 fa bc ae fe 44 3c
       -0.32591033 -0.009920883 -0.030548155 0.012023611
000110 c3 bc 4e 3c 8b 3a 6c bc fd bb c6 bb c3 5b c6 bb
       0.0126182465 -0.014418255 -0.0060648904 -0.0060534193
000120 c0 bb 01 bd e6 58 e9 bd 23 72 13 3d e3 55 81 bd
       -0.031673193 -0.11393909 0.03599752 -0.0631521
000130 22 80 ba 3c 0f bd 1f 3b 5a 28 c0 3d 2f 17 20 3d
       0.022766177 0.0024374162 0.093826964 0.03908461
000140 ef d9 44 3c dd 98 1d 3d da 64 3f 3d 92 31 8f ab
       0.01201485 0.03847586 0.04672704 -1.017452e-12
000150 3d cd 5f 3d fa 2b 3c 3e 67 11 26 bd 54 6c 5e 2a
       0.05463909 0.1837615 -0.04054394 1.9755145e-13
000160 46 b3 48 bd 85 4b 2f 3d c8 78 ab be 3c c2 79 3b
       -0.048999093 0.04279663 -0.33490586 0.0038110157
000170 b3 b5 38 3c c4 cf dd bc 32 7f 01 3d 9f 5a 78 be
       0.011273789 -0.02707661 0.031615444 -0.24253319
000180 14 15 73 3e 90 b8 9d bd e7 e0 27 3e ff 10 a2 3f
       0.2373851 -0.07701218 0.16394387 1.2661437
000190 f8 ad 2c be d2 32 4a be 72 16 0f bd e8 34 e9 bd
       -0.16863239 -0.19745949 -0.034933515 -0.11387044
0001a0 7b 2e 1a 3e 9e 8a 1f be 0c f0 90 bd d5 90 e4 ac
       0.15056793 -0.15580222 -0.07077035 -6.4962293e-12
0001b0 a6 24 ef 3d af 29 53 3d f7 41 8b 3d e4 98 07 ad
       0.11676912 0.051553424 0.06799691 -7.70781e-12
0001c0 53 eb e3 3d 15 b4 42 3d 92 04 e1 bd d6 01 9c bc
       0.11128869 0.04753502 -0.109872 -0.019043844
0001d0 44 82 cb 3d 06 4c bd be a0 6c f6 bd 0e 50 a7 bc
       0.099369556 -0.36972064 -0.12032437 -0.020423915
0001e0 48 b1 9e 3d 86 91 ec 3d 88 72 6d bd 5c 35 86 3a
       0.077486575 0.11551194 -0.057970554 0.0010239291
0001f0 74 c2 bc 3c cf e8 0c 3e 4b 69 86 bd 46 36 1f 3d
       0.023041941 0.13760684 -0.06563052 0.03887012
000200 4f 2a 56 bd d1 e1 40 bd 4b 18 65 3a 4a 05 77 ac
       -0.052286442 -0.047090355 0.00087392767 -3.5103747e-12
000210 21 81 90 bd 07 1b 04 be f7 a6 90 3d e3 3c 3e ac
       -0.070558794 -0.12900935 0.07063096 -2.7034423e-12
000220 13 e0 b1 3d da 8c fb bc 8f f3 98 3e b6 cd c9 3c
       0.08685317 -0.030706812 0.2987332 0.024634223
000230 10 00 94 bc d4 33 d0 3e 6f 15 01 3d 31 b3 34 3e
       -0.018066436 0.40664542 0.03151458 0.17646481
000240 1f 4a 1a bd 07 35 5e 3d c9 9d 81 3d e9 c4 8f bc
       -0.037668344 0.05424979 0.06328923 -0.017549949
000250 6e a7 5e ba 0b 79 17 3f 0b 39 29 bd ad 82 1c 3e
       -0.0008493577 0.5916907 -0.041314166 0.15284224
000260 91 b0 86 3c 51 cd e2 bd 1f bd c2 bd f2 50 c7 ab
       0.016441615 -0.11074317 -0.09508728 -1.4162267e-12
000270 08 59 9b 3d 03 c6 fc 3b 87 f6 dc bc dd a5 92 29
       0.07585341 0.0077140345 -0.026973022 6.512475e-14
000280 fa e5 4b bc d5 16 a4 38 cf ec 53 3c f6 62 84 bd
       -0.012444967 7.824382e-05 0.012934878 -0.06464188
000290 a9 79 b3 be c0 f5 4b 3c 81 f0 29 bd ca ae 09 bd
       -0.35053757 0.012448728 -0.041489128 -0.033613957
0002a0 b7 f0 14 bd ad 12 c3 3d 03 01 24 bc 6b a9 e3 bc
       -0.036362376 0.095250465 -0.010010007 -0.027790746
0002b0 3a fd b9 bd 48 03 6b 3d 59 c4 fe 3c 3d c4 55 bd
       -0.09081502 0.057376176 0.031099485 -0.0521891
0002c0 50 e1 d7 3d bf 9f 05 3e 28 73 1e bc 1d 39 67 2b
       0.10541022 0.1304922 -0.00967101 8.2146947e-13
0002d0 62 7d 8a bd c7 ec 4f bd fc 6a 99 3d 31 0e ba 2b
       -0.06762196 -0.050762918 0.07491109 1.3220034e-12
0002e0 e9 da ba bc a8 ca df bc 83 96 95 be 70 f6 ab ba
       -0.022809463 -0.027318314 -0.29216394 -0.0013119709
0002f0 19 29 9b 3c 4c ec 43 bd a3 12 dd bc a7 57 e5 3b
       0.018940495 -0.047832772 -0.026986426 0.0069989744
000300 fe 38 8a bd c5 55 2a bd e6 cb 16 3f 92 d2 83 bc
       -0.06749152 -0.041585702 0.58904874 -0.016091619
000310 06 62 3f 3d fe 0c 06 be 99 87 8f 3d 81 3b 6d bc
       0.04672434 -0.13090894 0.07008285 -0.014479519
000320 9a 9e 11 bd 80 c1 e0 3c 01 37 c7 3d 16 d8 5c ab
       -0.035551645 0.027436018 0.09727288 -7.845958e-13
000330 f8 ba de bd 6e eb 85 3c 4d 3d be 3b e2 c8 b4 ab
       -0.10875505 0.016347613 0.0058056475 -1.2845525e-12
000340 ad ec d9 3d 73 32 a8 3d 92 41 d3 3d 3a 06 2f 3c
       0.106408454 0.082127474 0.10315241 0.010682637
000350 c2 82 b3 3b a5 13 99 bd 3e 6d 48 3d 18 3f 69 bd
       0.005478234 -0.0747445 0.048932306 -0.056944937
000360 28 01 05 3f c5 07 88 3c 12 36 80 be 21 55 97 bd
       0.5195489 0.016605267 -0.25041252 -0.07389284
000370 3d a5 a3 3d 06 a5 a2 3c d9 67 19 bd 57 d1 49 3c
       0.07990501 0.01985408 -0.037452552 0.012317977
000380 6a 6b b9 3c 74 89 5e 3d 8d f9 eb 3e 05 8e c4 ab
       0.022634227 0.054330304 0.4608883 -1.3966056e-12
000390 90 89 70 3a fa ca ad bd 59 db 8b bc e6 3a 7b ac
       0.0009175772 -0.0848598 -0.017072367 -3.570194e-12
0003a0 da 48 3e 3f c7 2c 7f bc 8c cd 1e 3e 31 60 00 3d
       0.7432991 -0.015574641 0.15508097 0.031341735
0003b0 a7 70 86 3d d5 75 3a 3d 61 8e a5 3c 39 bb a6 3d
       0.065644555 0.04552253 0.020209493 0.08141179
0003c0 b5 5a 1c 3d ac bd 6f 3e 49 b6 9c 3b 9c af 05 3d
       0.038172442 0.23412198 0.0047824723 0.032638177
0003d0 f5 0e 1b 3e 49 8a 78 bd 87 ea 20 3e fe 85 2b be
       0.15142424 -0.060678754 0.15714465 -0.16750333
0003e0 ce f2 81 bd 35 f1 fe 3c 06 23 55 3d 3a e2 cf 2b
       -0.063451394 0.031120876 0.052035354 1.4771025e-12
0003f0 92 23 41 bd 97 2f 2e be eb cf 89 bd f2 3d 0b 2c
       -0.047153063 -0.17010342 -0.0672911 1.9787475e-12

onnx::Conv_743 f4 [24]
000000 51 51 3d 3e 65 f2 8f bd 2e af 0d 3e 54 37 d6 3e
       0.18488051 -0.07028655 0.13836357 0.41839087
000010 45 23 63 3d d0 7a ad 3d 88 3e 81 3c 30 46 59 3e
       0.055453558 0.0847069 0.015776888 0.2121818
000020 03 59 86 3d c7 b9 45 bd 36 b1 9f 3d 05 27 67 ba
       0.065599464 -0.048272874 0.07797472 -0.0008817765
000030 12 d6 90 3e 1b b9 45 3e 33 af 8a bd a5 39 9a 3d
       0.28288323 0.19308893 -0.06771698 0.07530526
000040 e1 fc f6 3e d5 32 ed 3d 40 c0 07 3e 08 13 ce 3d
       0.48239806 0.11581961 0.13256931 0.10062224
000050 cf 83 cd 3e 57 14 43 bc c6 53 08 3c f2 e9 02 3e
       0.40139624 -0.011906705 0.008320754 0.12784556

onnx::Conv_745 f4 [24, 24, 1, 1]
000000 39 da 56 3e a9 c0 96 3c bd 38 80 3e 6d 02 72 3e
       0.20981683 0.018402414 0.25043288 0.23633738
000010 40 8d 4b 3c 5a d6 10 3e cc 14 17 bc 00 06 0d 3e
       0.012423813 0.14144269 -0.009221267 0.1377182
000020 7e bd 3a 3b 23 b6 17 bc b4 cf 3b 3d 2d 3f 63 2b
       0.0028494294 -0.009259733 0.045852378 8.0734275e-13
000030 20 f2 05 3e b1 74 7a 3c e7 43 05 3c 62 3c d9 a9
       0.13080645 0.01528661 0.008133865 -9.6472106e-14
000040 5a fa aa 3e 86 75 3d 3e 86 62 12 bc 8b 2c 9c 3c
       0.33394128 0.18501863 -0.008934623 0.019064208
000050 56 28 a2 3c a3 fb a7 3d ce ea f5 3c 99 ef b8 3a
       0.019794624 0.08202293 0.03001919 0.0014109492
000060 dc 44 d5 3d bd 9e 43 3d ba 4f 7c 3c 52 a2 18 3d
       0.104135245 0.047758806 0.015399868 0.037264176
000070 9e 1e 4c 3e 52 6f c2 3e a7 f7 6b 3e 7e 76 90 3b
       0.19933555 0.37975556 0.2304369 0.0044086566
000080 fa 31 9e be 7c c5 95 bd e0 44 9e 3d 9d 7d 95 ab
       -0.30897504 -0.07313058 0.077279806 -1.0621951e-12
000090 ba 7c aa 3b 15 f4 5f 3d e9 bd 8a be 20 46 51 29
       0.005202857 0.054676134 -0.27098015 4.6468146e-14
0000a0 1b 50 af 3d 71 19 18 3d 5a 3b 81 3d fa eb cc be
       0.08560201 0.037133638 0.063101485 -0.40023786
0000b0 73 3d 0a be 23 ac 69 3e 3e 2e e9 3d c7 ef 34 be
       -0.13500004 0.22819571 0.11385773 -0.17669593
0000c0 fe ad 64 3d 19 f7 47 3c f2 7f 11 3c 9a 38 65 3c
       0.055829994 0.012204909 0.008880602 0.013990546
0000d0 8a 5f 05 3e f3 51 16 be bb af 03 bf da 92 9d bd
       0.13024727 -0.14679699 -0.5144002 -0.07694025
0000e0 7a 6a 89 3d 5c 1b 4c bd 56 fb a7 3c 65 72 7d 2b
       0.06709762 -0.04983078 0.020505589 9.004241e-13
0000f0 46 14 09 bd f5 80 d6 3c bb 4e 3a 3d a9 ec 38 2a
       -0.0334666 0.026184538 0.04548524 1.6424591e-13
000100 7d bb af 3c 73 e5 ec bd 9f 0d ef 3c 18 90 1f 3d
       0.021451706 -0.115672015 0.0291813 0.038955778
000110 77 9d 95 3d 55 50 61 be 6d 43 b2 bd e2 c8 07 3d
       0.07305425 -0.220033 -0.08704267 0.03315056
000120 ee 7e 2a 3e 31 2c e9 be 07 57 95 3d b3 da 50 3d
       0.16649982 -0.45541528 0.0729199 0.050989818
000130 a3 40 7c 3d 8a f0 6a 3e b7 02 37 3d 3f 2a 19 be
       0.06158508 0.22943321 0.044680323 -0.14957522
000140 36 7d 3a bc 9f 59 b9 be 1a 44 f6 bd 3c 09 12 2b
       -0.011382392 -0.36201188 -0.12024708 5.1882435e-13
000150 5f 23 d6 3b f4 3d c9 3d 4d cc a9 bd bd e9 31 ab
       0.0065349783 0.0982627 -0.082909204 -6.320741e-13
000160 ab 47 aa 3d 56 35 0f bc cb 5c 1e be 54 55 29 3b
       0.08314451 -0.008740744 -0.15465085 0.0025838213
000170 4d b1 a6 be 41 3e 16 3a 06 5e 1c 3e a5 db d7 be
       -0.32557145 0.00057313225 0.15270242 -0.42159763
000180 b1 0f ac be 9d 59 26 3b 26 cd 65 be e2 74 86 be
       -0.33605722 0.0025383004 -0.22441539 -0.2626105
000190 2e 3d bd be a7 af 8b 3d 63 1b 9f be 5e ee 07 be
       -0.3696074 0.068206124 -0.31075582 -0.13274524
0001a0 d3 77 e1 3d a4 7e 7b bd c8 ed 6c be 93 c7 af 2b
       0.11009183 -0.06140007 -0.23137581 1.2489891e-12
0001b0 32 51 17 be 7c b2 97 bd 8f 1c f6 3d 48 a3 05 2c
       -0.14777067 -0.0740709 0.12017166 1.8991076e-12
0001c0 e2 c2 1e bf c8 99 3b be d7 2c 08 be f3 5c e9 3d
       -0.6201612 -0.18320382 -0.13298355 0.11394682
0001d0 c9 35 11 bd 3d fe 11 3d 95 3b 36 be a6 02 3a 3c
       -0.035451684 0.03564285 -0.17796166 0.0113531705
0001e0 04 ad 04 be f6 f6 37 3c 25 d5 53 be 24 58 2a be
       -0.12956625 0.011228314 -0.20686777 -0.16635185
0001f0 cc d9 42 bc 67 25 71 bd 21 80 59 bc 77 c0 ee bd
       -0.011892747 -0.05887356 -0.013275177 -0.116578035
000200 5a c6 8d bb c3 cf 18 bc d7 08 43 bd 53 3d 08 2a
       -0.004326624 -0.009326878 -0.047615852 1.2100503e-13
000210 51 c5 be bd d8 e8 5f bc ca 24 8a bc e8 77 d1 29
       -0.09314979 -0.013666354 -0.016863246 9.302265e-14
000220 4e 06 68 be 5c 72 1c be 21 9c c4 3a 6f a9 90 ba
       -0.22658655 -0.15278 0.0015000143 -0.0011036823
000230 0e 27 d6 3b 44 32 2c bd 23 fb 8e b9 be 67 c1 3b
       0.0065354174 -0.042040125 -0.00027271462 0.0059022596
000240 46 fe b8 3c 35 e9 d4 3d e3 8d 16 3d 0e 47 2c 3d
       0.022582185 0.10396043 0.036756407 0.04205995
000250 ae e4 01 be 27 5e a4 3d 18 3d fc bd db 18 b7 3c
       -0.1268489 0.08025771 -0.1231634 0.02235072
000260 dc 4b ea bd bd 2b 4f 3d 6a a1 d5 3c 47 9d 86 2a
       -0.1144025 0.05057882 0.026077945 2.3912315e-13
000270 8d e9 3d 3c ec e4 40 be f7 9b ca bd ff ba 20 2b
       0.011591327 -0.18837327 -0.09893029 5.710293e-13
000280 9c 9b 63 3d b4 d8 81 3d cc 15 7a 3d 22 b8 6f bd
       0.055568323 0.06340161 0.061055943 -0.058525212
000290 88 12 19 3e 7a a4 f9 3d d9 99 50 be ea 4f dd 3d
       0.14948475 0.121895745 -0.20371188 0.10806258
0002a0 d2 ff c0 3c 57 52 cc 3d 83 ac 48 3d ad a7 43 3d
       0.023559485 0.099766426 0.048992645 0.04776733
0002b0 d9 3c 80 bc 08 b6 c8 3a a6 44 db bc 07 6c 51 3d
       -0.015654014 0.0015313039 -0.026766133 0.051128414
0002c0 50 0e 1e be 0e a4 a6 3d ea 6c b0 bc c5 23 e2 aa
       -0.15435147 0.0813676 -0.02153631 -4.0170485e-13
0002d0 f8 93 61 3d 26 0f 03 be b3 ac ea bd c8 13 c5 2a
       0.055072755 -0.12798747 -0.11458721 3.5007956e-13
0002e0 dc 38 16 3c eb 1a e7 3c b8 b9 30 3d 8d 9b 07 be
       0.00916883 0.028211078 0.043145865 -0.13242932
0002f0 7d a8 b2 3d 95 97 88 3d 34 87 30 bd 63 62 7b 3d
       0.08723543 0.06669537 -0.04309769 0.061373126
000300 ef 71 c7 3b 2e 66 7e bd ee 0c 80 3c 0f c0 87 bd
       0.00608658 -0.062109165 0.015631165 -0.06628429
000310 1e f0 41 bf 77 3c 6e be ff bc 8a 3e d6 f9 db bd
       -0.75757015 -0.23265253 0.27097318 -0.10741012
000320 7b 84 19 bd 18 f3 e4 bd 0d 34 5b 3c bc b8 91 ab
       -0.03747986 -0.11179179 0.013379109 -1.0354144e-12
000330 1f 6f e0 bd 5b c1 cc bd 6b f7 e0 3d 0e c2 0b a8
       -0.10958695 -0.09997817 0.10984691 -7.758129e-15
000340 7a 24 08 be d4 b6 67 3e 3b 63 1c 3e e0 2b 7f 3d
       -0.13295165 0.22628337 0.15272228 0.0622977
000350 c5 b4 b0 bd 20 14 0a be e5 f9 f6 bd 2f fc 39 3d
       -0.08628229 -0.1348424 -0.12059382 0.045406517
000360 91 fc 10 3d dc d3 19 3e 9c 90 8d 3d 04 84 d0 3d
       0.035397116 0.15022224 0.06912348 0.1018143
000370 b8 97 cb be a2 d6 7f 3e 90 2b d0 be ed d2 2d 3e
       -0.3976419 0.2498422 -0.40658236 0.16974993
000380 20 29 45 3e 0a 63 d1 3a 48 c7 44 3c 4c 81 8b ab
       0.19253969 0.001597495 0.012010403 -9.912431e-13
000390 a9 35 52 3d 5e 15 05 3e 20 05 0d 3e 54 05 02 ab
       0.051320706 0.12996432 0.13771486 -4.619267e-13
0003a0 21 14 00 3d ee f7 5a 3d 1d 26 1f bd 9b 1e 71 3e
       0.031269196 0.0534591 -0.038854707 0.23546831
0003b0 29 c0 0d bd 4e 2a 0c 3e 72 a8 9f be be fc 6d 3c
       -0.034607086 0.13688013 -0.311832 0.01452559
0003c0 e0 9d 43 3e a7 1e 9d 3d a4 5e 33 bc a1 3a cf 3d
       0.19103193 0.07671862 -0.010947857 0.101186045
0003d0 29 47 58 3e e1 6e 87 3d 06 74 0f be 7d fa b2 3d
       0.21120895 0.06612945 -0.14009103 0.08739183
0003e0 98 16 85 3e 63 c9 a8 3d ae 1b 90 3c 6d e3 df 2a
       0.259938 0.082415365 0.017591324 3.9770566e-13
0003f0 31 d4 41 3e d3 e6 8a 3d 5d 6c ac be 7c f9 0e ac
       0.18928601 0.067823075 -0.33676425 -2.0317905e-12

onnx::Conv_746 f4 [24]
000000 c7 fe 73 bf 87 59 9d be 45 89 c8 3e 24 78 21 3d
       -0.95310634 -0.30732366 0.39167228 0.039421216
000010 2b 56 9d 3f d6 a9 8a 3f 62 23 88 bd e9 8f 22 3e
       1.2291921 1.083308 -0.06647374 0.1587521
000020 0d b4 45 3f 24 fe c2 be 51 58 e0 be 38 6f 35 3d
       0.7722786 -0.3808452 -0.4381738 0.04429552
000030 ea 39 a4 3e 12 58 21 bf d6 93 01 bf 68 7a fc 3f
       0.32075435 -0.6302501 -0.50616205 1.9724855
000040 5c 14 f0 3d 76 a3 e9 bd b1 e3 86 bf b1 35 80 3e
       0.11722633 -0.11408131 -1.0538236 0.25040963
000050 82 0f 5d be f2 1d 0e 3f c0 38 c9 3e 68 34 a6 3c
       -0.21587947 0.5551444 0.3930111 0.020288661

onnx::Conv_748 f4 [24, 1, 3, 3]
000000 1a 0d 1a bf ed 63 a3 3f 85 5f 92 3e aa 5c 79 bf
       -0.6017624 1.276487 0.285885 -0.9740702
000010 ce 51 9a be 98 07 8b c0 e3 21 8a be 98 fd fd 3f
       -0.30140537 -4.344677 -0.2697898 1.9843016
000020 34 13 e4 3f 8b 88 82 bd 49 b5 42 be ba 39 ee bd
       1.781836 -0.063737 -0.19014467 -0.11632104
000030 d9 91 1e be 16 25 ea be 72 da a2 be b5 92 39 3d
       -0.15485324 -0.4573142 -0.31807286 0.045305926
000040 c4 cd 28 be 2b b6 a9 bd 80 cf 06 be a7 5d 03 3d
       -0.16484743 -0.08286699 -0.13165092 0.032071736
000050 af 24 ef 3d 02 c8 6e 3e 33 cd d5 3e af 5d a5 3e
       0.11676919 0.23318484 0.41758117 0.32298037
000060 f1 f0 ac 3d 2e 13 0b 3f 0c 1c fb 3e 0d 19 42 3d
       0.084443934 0.5432614 0.49044836 0.04738717
000070 5b ac e9 3d 31 e7 43 3e 1b ad 0a 3e b1 5d 6a 3e
       0.11409827 0.19131161 0.13542597 0.22887303
000080 39 1d 82 3e 4a b2 b3 3d ba 6e 8c 3e 52 6d 78 3e
       0.2541292 0.0877424 0.27428228 0.24260452
000090 c4 09 18 be 7e e5 2d 40 86 eb 50 bf b5 fa 12 bf
       -0.14847475 2.717132 -0.8160938 -0.574138
0000a0 05 d0 18 40 78 fc 0e c0 a5 4b 2a bf 3e a1 04 40
       2.3876965 -2.2341595 -0.66521674 2.0723414
0000b0 b4 1e 8c bf 3e a3 06 3f b9 57 b8 bf f9 95 b8 3f
       -1.094687 0.5259284 -1.4401771 1.4420768
0000c0 1c 43 50 3f ad 4c 91 c0 ff e8 a4 be 01 9f 85 3f
       0.813524 -4.54061 -0.32209012 1.0439149
0000d0 56 f5 31 bf cc f2 ef 3f 68 80 dc bc 65 dc 1a be
       -0.6951498 1.8745971 -0.026916698 -0.15123136
0000e0 b8 fe fc bd 16 78 b0 bd 81 20 81 be 2c e8 99 be
       -0.12353271 -0.086166546 -0.2522011 -0.30059946
0000f0 14 b6 b5 bd 44 7a 47 be 39 65 a9 be 12 e2 3c bd
       -0.08872619 -0.19480234 -0.3308504 -0.046114035
000100 19 81 4e be ae 44 30 bd 2a 6b 2f be 4f ed bd be
       -0.20166434 -0.043034248 -0.17130724 -0.37095115
000110 9d 72 97 be a8 4a c9 bc 4f c8 65 be b9 b9 9d be
       -0.2957963 -0.024571732 -0.22439693 -0.30805758
000120 c1 13 d3 bd b9 0c 14 be 9e ad ac bd 12 94 a0 be
       -0.10306502 -0.14457978 -0.08431552 -0.3136297
000130 02 f4 45 bf db 37 cc be 7a 60 8d be d2 a4 64 bf
       -0.7732545 -0.39886364 -0.27612668 -0.89313996
000140 c4 00 ee be 28 40 7c 3d de 1e a9 3e aa 9a 3e 3e
       -0.4648496 0.06158462 0.33031362 0.18613687
000150 62 c1 87 3e 7c 10 1a 3f 11 d6 04 3f 0a 06 ce 3b
       0.26514727 0.60181403 0.5188914 0.006287341
000160 83 9a b0 3e 65 62 8e 3e 28 0d 17 be 48 bb b2 be
       0.34492883 0.27809444 -0.14751112 -0.3490851
000170 c2 6a b8 be 28 6c 7c bd 7f d8 f6 be 0e cd 07 bf
       -0.3601895 -0.061626583 -0.48212048 -0.53047264
000180 bb 02 2b bb f1 8f 89 be be dd 6a be b4 b5 8f 3e
       -0.0026094157 -0.2686763 -0.2293615 0.28068316
000190 b0 0e 2a 3f d1 4d 57 3f 70 25 39 3d 29 aa 82 3f
       0.6642866 0.84103113 0.04520172 1.0208179
0001a0 43 19 8f 3f 64 d9 8d 3e 4f 0d 05 3f 07 35 de 3d
       1.1179584 0.27704918 0.5197343 0.10849958
0001b0 a1 50 e7 3e 87 91 c5 3f 92 8f b9 be ea 46 54 3f
       0.45178702 1.5435036 -0.36242348 0.82920706
0001c0 31 86 ba 3f d6 a0 12 bf 18 a7 5a be 0b 90 4f 3e
       1.4572202 -0.57276666 -0.21352804 0.20269792
0001d0 8b 78 fb bf 9c a3 24 bc 05 af e5 bc b0 c6 8e bd
       -1.9646162 -0.010048773 -0.028037557 -0.069714904
0001e0 fb 8b 00 be 69 19 84 be c5 64 c7 be 51 95 9c bd
       -0.12553398 -0.25800636 -0.3894407 -0.07645667
0001f0 a2 94 85 be eb 09 ab be 6a 9b 0a bd e8 e8 ca bd
       -0.2608996 -0.33406004 -0.03383962 -0.099077046
000200 9a 75 bb bd b5 f1 4f bd 37 3c 8a be 44 a9 9b be
       -0.0915329 -0.05076762 -0.26999065 -0.30402577
000210 f0 b9 f5 bc b2 21 9e be 63 f3 a8 be 53 a2 0b bc
       -0.029995888 -0.30885082 -0.3299819 -0.008522588
000220 88 21 a9 3d 0a 2a be 3e 5f 36 ac be d3 08 ce bf
       0.08258349 0.37141448 -0.33635232 -1.6096443
000230 33 1c a3 bf 06 a5 3d 3c 7f 90 86 3e 2c a7 45 3f
       -1.2742981 0.011574989 0.26282117 0.7720821
000240 15 36 7d 3d 46 9e f0 3d 28 43 aa 3d a5 11 b7 3d
       0.061819155 0.11748938 0.0831359 0.08938912
000250 d7 8a 48 3e cd 0b 2f 3e 6f c9 14 3d 21 71 1b 3e
       0.19584213 0.17094345 0.036324915 0.15179874
000260 ba e0 44 3e cd c0 7b bd ac cb 27 be 65 5d 14 be
       0.19226351 -0.061463166 -0.16386288 -0.14488752
000270 31 1f 1a be 22 d3 a9 be 31 45 b0 be f1 84 df bd
       -0.15050961 -0.33168894 -0.3442779 -0.109140284
000280 1b ab a0 be 2f a0 c9 be 0d bd 01 3f e4 71 be 3e
       -0.31380543 -0.39380023 0.50679094 0.37196267
000290 66 e5 28 3e b7 6c 01 3e 92 50 90 be cc 81 7c bf
       0.16493759 0.12639128 -0.2818647 -0.98635554
0002a0 be 92 d0 3d b4 91 a2 bf 64 28 0c c0 79 80 d5 bd
       0.10184239 -1.2700715 -2.1899652 -0.10424895
0002b0 21 e0 1a be 0e 99 93 be f0 c6 39 be 8a 65 df be
       -0.15124561 -0.2882771 -0.18142295 -0.43632156
0002c0 21 b0 fd be 5c da 55 be 01 95 e7 be 88 b0 9a be
       -0.49548438 -0.20884079 -0.45230868 -0.30212808
0002d0 05 40 aa bc eb ab 45 be 92 a7 31 be b4 34 19 be
       -0.02078248 -0.19303863 -0.17349079 -0.14961511
0002e0 31 90 cb be 4d 77 cb be 4a 06 4a 3c f2 e3 97 be
       -0.39758447 -0.39739457 0.012330601 -0.29666096
0002f0 03 9e a3 be e8 7d 12 be ad 59 2b be fa 9e 31 be
       -0.3195649 -0.14305842 -0.16733427 -0.17345801
000300 44 d3 20 be f4 63 f2 be d8 96 07 bf 15 c9 34 be
       -0.15705591 -0.47341883 -0.52964544 -0.17654832
000310 be 1d 04 bf 96 7a 2c bf 88 fd 92 bf 48 b2 45 c0
       -0.5160788 -0.6737455 -1.1483622 -3.0890064
000320 cb e4 1a c0 d5 1f f6 be bb 00 51 bf 51 8f db be
       -2.4202144 -0.4807116 -0.8164174 -0.4288278
000330 8b 22 4f 3f 3d c1 59 40 20 0a 3f 40 e3 2d 2a bd
       0.80912083 3.4024193 2.984993 -0.041547667
000340 1b 0c b1 bc 22 31 fe bc 79 00 88 3c d4 47 b9 3e
       -0.021612218 -0.031029288 0.016601788 0.36187613
000350 1c 82 9c 3e 1f 88 85 3d bb 89 17 3f 75 a0 31 3f
       0.30568016 0.06520104 0.59194535 0.69385463

onnx::Conv_749 f4 [24]
000000 1d c1 d1 3d 2a 09 97 3e ff 6d 66 be 1c 5d 1e be
       0.102419116 0.2949918 -0.22502898 -0.15465206
000010 86 f8 e4 bd 2c fb 18 3f c6 06 82 3e 98 b0 bc 3e
       -0.111802146 0.5975826 0.25395793 0.3685348
000020 b9 7d b2 3e 08 b2 15 bf 48 ff 5b 3e 2e b2 82 bd
       0.34861544 -0.5847478 0.21484101 -0.06381641
000030 1f 46 cb be 31 ab 31 3e 55 1d 20 3e 82 03 19 3e
       -0.39701936 0.1735046 0.1563619 0.14942744
000040 b2 44 8b be bc dc 52 3e f1 90 a0 3e 21 d9 4b 3e
       -0.27200848 0.20592016 0.31360582 0.19907047
000050 0c ba 97 3e 2f 91 ff 3e 7a 7f e0 3e fe 89 4a be
       0.2963413 0.49915454 0.43847257 -0.19779202

onnx::Conv_751 f4 [24, 24, 1, 1]
000000 fb b0 4b 3c 6b f8 c1 3b 3d a7 c1 3c ee bc f7 3c
       0.012432332 0.0059195063 0.023639316 0.030241456
000010 d2 69 13 bb b6 a0 96 bc 80 3c 82 bc ef e0 e4 bc
       -0.0022493494 -0.01838718 -0.01589799 -0.027939288
000020 0c 51 93 bb 3e 83 a6 3d ce 4c e1 3d df d4 84 bc
       -0.0044957455 0.08130501 0.110009775 -0.016214786
000030 6d 7a 06 3b c8 fa 7e bd 3e d6 ec 3a 6a 32 52 b9
       0.0020519749 -0.062250882 0.001806922 -0.00020045941
000040 f0 93 c9 3c 6f 4d 37 bd 96 f0 2c 3e b9 22 92 bd
       0.024606675 -0.04475158 0.16888651 -0.07135529
000050 ff a5 c4 bc 29 8a 82 bd cd 35 1a 3d 39 e5 ec 3c
       -0.024004934 -0.06374008 0.037648965 0.028917896
000060 3e ed e7 3b b6 c7 b5 bc 9b 10 a1 ba de 1f 4a bd
       0.007077842 -0.022189956 -0.0012288274 -0.049346797
000070 8b fc 8b 3b 01 74 8a bb e4 1b 11 bd 05 ac 2e bc
       0.004272049 -0.0042252545 -0.03542699 -0.01066113
000080 3a c5 70 3d 6d 0a 3a bd 55 31 fc 3d db 0f ef 3d
       0.05878184 -0.0454201 0.12314097 0.11672946
000090 e0 99 f1 3b 51 3b a5 3d d0 1d 28 bd 5e 75 cd bc
       0.0073730797 0.08067954 -0.041044056 -0.02508038
0000a0 5f fe 70 bd d6 d1 a2 bc 3b 21 9b bd 54 be b0 3d
       -0.058836337 -0.019875448 -0.075746976 0.08630052
0000b0 48 51 9e 3d bc 8c 57 3c 85 01 f1 be 69 2d 1e 3c
       0.07730347 0.013156112 -0.47071472 0.009654381
0000c0 ba 87 84 be 35 53 55 3d a4 e1 8f 3e f4 19 44 3c
       -0.258848 0.052081306 0.28101838 0.011969078
0000d0 99 c7 86 3e f9 d3 c1 be 15 d6 40 3e 41 e9 0f bb
       0.26324156 -0.37857035 0.18831666 -0.0021959099
0000e0 c4 bd 99 be 2f 18 12 be 27 12 f2 3d 6c 7b 12 be
       -0.30027592 -0.14267038 0.118198685 -0.14304894
0000f0 d6 02 1b 3d 02 e9 68 3d 48 37 85 3c f3 a1 87 bd
       0.0378445 0.05686284 0.016261712 -0.06622686
000100 e6 72 5b bc 0d cf 86 3c f1 0b a0 bd 94 cc a5 bc
       -0.013394093 0.016456151 -0.07814778 -0.020239152
000110 d0 0d 5c 3e 85 39 01 3e 99 86 39 3d e0 43 58 3d
       0.21489644 0.12619598 0.045294378 0.052799106
000120 2b 46 0d 3e ca 44 91 3d 29 3c 22 3e f8 ff 2b bd
       0.13796298 0.070931986 0.15843262 -0.041992158
000130 58 be 2e 3c af d7 bd bd f6 90 98 bd 94 9d e5 3d
       0.010665499 -0.09269654 -0.07449524 0.11211696
000140 f6 50 ac be 0c 83 ae 3e c9 51 87 3e c4 96 3b 3d
       -0.33655518 0.34084356 0.26429585 0.04579808
000150 fb 09 f0 bc 70 42 63 be fd e8 dd bd 3b dd 33 3c
       -0.029301634 -0.22193313 -0.108354546 0.010978038
000160 e7 de 1c be 8f d0 26 bd 86 0a 2f 3e c3 66 44 be
       -0.15319405 -0.04072624 0.17093858 -0.19179825
000170 7e 60 ef be 51 28 0e 3e d3 73 54 3e e9 7e f3 3d
       -0.46753305 0.13882567 0.20747308 0.118894406
000180 4f a2 4e bc 6c 89 e6 3d 01 2b bf 3c 9f 58 09 3e
       -0.01261194 0.1125668 0.023335936 0.13412713
000190 8f 08 92 ba 9a 18 be 3b 0c 09 2f 3e 73 8a 2f 3e
       -0.0011141467 0.0058012726 0.17093295 0.17142658
0001a0 ac 02 07 bb ba 37 b1 3d e2 9b 7c bc fb a8 8c bb
       -0.0020600958 0.08653207 -0.015418025 -0.004292605
0001b0 b2 19 33 be e3 68 95 bd c1 ef e9 bc e7 ee df 3b
       -0.1749027 -0.07295396 -0.028556706 0.0068338993
0001c0 e8 4f 1b 3e 54 2e 65 3e 10 23 c4 bc ad 82 43 3d
       0.151672 0.22380954 -0.0239425 0.047732044
0001d0 17 3b 22 be f0 0e 0f 3c 20 80 9b ba 66 74 ee bc
       -0.15842853 0.008731589 -0.0011863746 -0.029108237
0001e0 e2 67 1e 3d 02 71 1a 3e 9d 48 ee bc 38 2e 06 bc
       0.03867329 0.15082172 -0.02908736 -0.00818973
0001f0 7f 25 bc 3c 0c 32 1c 3d 0a e4 5e bd 72 94 2c 3e
       0.022967098 0.038133666 -0.054416694 0.16853502
000200 d1 e7 20 3d b3 9a 91 3d 46 c0 56 3e eb 24 e8 bd
       0.039283577 0.07109585 0.20971784 -0.113351665
000210 c6 77 31 bc 21 ec 46 3b 7f db a5 bc 07 29 d0 3c
       -0.010831779 0.0030353146 -0.020246265 0.025410188
000220 13 ad a2 bd 21 b0 7e 3d 94 89 4b 3c 5e 2a 0a bd
       -0.079431675 0.06217969 0.012422938 -0.03373181
000230 2e e2 e7 bd 90 eb 92 bd e9 cf e0 3d be 2a 1e bd
       -0.11322437 -0.07173836 0.10977156 -0.03861498
000240 13 36 9f 3e 1e 78 9a 3d 3b 67 f4 3d 9d 4b 96 bc
       0.31095943 0.07542442 0.11933752 -0.018346602
000250 c6 16 10 be 30 56 02 3c 02 0d 8d bb 82 07 b3 3d
       -0.14071187 0.007955119 -0.004304529 0.087416664
000260 5e 92 eb bd 1f ee 96 3d 70 db 18 3d 26 e6 cb 3c
       -0.11502527 0.07369637 0.037318647 0.024890017
000270 36 3a f3 bc f1 c9 72 bd 21 26 bc 3c 7b 59 00 be
       -0.029690843 -0.059274618 0.0229674 -0.12534134
000280 80 66 37 bd 64 b1 1f 3d d5 23 d6 3d cf 09 ae bd
       -0.044775486 0.038987532 0.10456053 -0.084979646
000290 de ce fb 3b 5f 79 8a 3d 91 61 c1 3c ae 1b 34 bc
       0.0076845726 0.06761431 0.023606094 -0.0109929275
0002a0 3c 7a 9c be 91 da bc 3d 93 1b e1 3b be 17 19 3d
       -0.30562007 0.09221376 0.006869742 0.037376158
0002b0 69 fe 00 3e 97 54 61 3e 6c 0b 55 3d 7b 9c 3f 3d
       0.1259705 0.22004925 0.052012846 0.04678009
0002c0 d6 fb af bd 7e 65 7e 3d d9 bb 62 be 7b 42 77 3e
       -0.08592956 0.06210851 -0.2214197 0.24146454
0002d0 53 ed 3c 3d 5f c9 ab 3d dd 9b 8a bd 76 94 e0 3e
       0.046124768 0.08388018 -0.0676801 0.43863267
0002e0 68 29 66 3d 69 d7 5c 3b bf 11 0a bd ce ca 1b be
       0.05619183 0.003369773 -0.03370833 -0.15214083
0002f0 b9 d4 eb bd 12 6a a3 3d b1 75 84 bd 79 95 ae bd
       -0.11515183 0.07979216 -0.0646776 -0.085246034
000300 d5 54 f5 3a 42 04 bf bc 88 4e 5e bb 91 44 11 3e
       0.0018717299 -0.02331746 -0.003392132 0.14186312
000310 31 bf f0 bb 31 78 80 3a f1 97 e1 3d 18 62 33 3e
       -0.0073470105 0.0009801445 0.11015309 0.17517889
000320 7d ec ff b9 e1 1b 07 bc 87 2e aa 3b 6b 7a 01 bd
       -0.00048813588 -0.008246393 0.005193535 -0.031610887
000330 77 9b c3 3c fe 9f b1 bc 44 ce 26 bc 61 02 ca ba
       0.023877842 -0.021682736 -0.0101810135 -0.0015412086
000340 e9 b8 30 3e 9b 63 2a 3e 48 fe 0e 3c 98 e4 ec ba
       0.17258038 0.16639559 0.008727618 -0.0018073497
000350 36 1c d0 bd 55 a7 ae bc 0d b3 83 3b 27 28 94 bb
       -0.10161631 -0.021320025 0.0040191473 -0.004521388
000360 17 8e ba 3d 4d 3a 4d 3e e3 da 8d bd 42 d6 63 3e
       0.09109133 0.20041771 -0.06926515 0.22249702
000370 b1 0e cb bd e7 86 f1 3c 70 f6 97 3d 52 c7 e7 bd
       -0.099149115 0.029483272 0.07420051 -0.11317314
000380 c6 60 51 bd 31 e3 bb 3e 4b 7f 40 be ef aa ce bd
       -0.05111768 0.3669677 -0.18798558 -0.10091197
000390 16 70 b5 3c 5d 23 84 bd 65 34 cf be 7c 51 07 bd
       0.022148173 -0.064520575 -0.4046966 -0.033036694
0003a0 ef 1d 67 3e f6 68 06 be c6 c7 59 bd fa 34 51 3c
       0.22570013 -0.13125977 -0.053169034 0.012768978
0003b0 41 95 51 3d ef dd 4f 3e 4e e2 69 bd 0b cf 3a be
       0.05116773 0.20299505 -0.057100587 -0.18243043
0003c0 74 8a b4 bd c3 e6 37 be d4 34 13 bc e2 1a 9e bb
       -0.0881547 -0.17959122 -0.008984763 -0.004824982
0003d0 87 9b 19 3d 3b 4c 71 bb 96 27 85 bd e2 dc a7 b8
       0.037501838 -0.0036819119 -0.06501691 -8.004323e-05
0003e0 75 81 ee bc 3a 79 a2 3d 0a 64 00 bc f0 c8 48 3c
       -0.029114464 0.079332784 -0.007836351 0.0122549385
0003f0 98 1b 90 bd c7 95 e5 bd 88 9e 0c be c6 7b ca 3d
       -0.07036513 -0.112102084 -0.1373235 0.09886889

onnx::Conv_752 f4 [24]
000000 20 45 f7 3e 7f 4d 17 3e 69 80 46 3e 61 19 39 be
       0.48294926 0.14775656 0.19384922 -0.18076088
000010 36 2a 28 3f d2 1d ab 3e bd 7a 86 3e e3 0d 44 3d
       0.6568941 0.3342119 0.26265517 0.047864806
000020 2d a9 6f 3d 04 3b a0 3e 52 5a 3d 3f 8c cf 74 bd
       0.058510948 0.31295025 0.7396594 -0.059768245
000030 34 15 2c 3f 1a 04 1e 3d 54 b8 fd 3e 19 44 75 3e
       0.67219853 0.03857813 0.49554694 0.23951758
000040 e4 4b 8e 3e da e6 8b be a4 40 9e 3e bc 42 8b 3e
       0.27792275 -0.27324563 0.30908692 0.27199352
000050 fe 68 14 3f 54 ab b1 3d 86 3f 58 3d e5 ea 97 3d
       0.57972705 0.08675256 0.052794956 0.074178495
